chatbot/data.pth (torch, 5098 bytes, 6 tensors)

l1.weight f4 [8, 45]
000000 23 f0 c6 bd 12 f9 ed bd 59 b6 ee be 8d f9 25 bf
       -0.09713771 -0.11619772 -0.46623495 -0.6483391
000010 70 04 1b bd 2c 28 09 3e 83 82 d0 3e 34 5c 0b 3f
       -0.03784603 0.1339423 0.40724573 0.54437566
000020 b6 b6 b7 3e 57 78 ba 3e be da 2b 3f 5e 17 44 bd
       0.35881585 0.36419937 0.6713065 -0.047873847
000030 0c 95 fa 3d 5f 30 4b 3f 0b 5f bd bd 63 46 f4 3e
       0.1223546 0.79370683 -0.09246644 0.4770995
000040 a6 3d b4 bd 34 5c 45 3e 6c a1 50 be a7 64 06 3f
       -0.08800821 0.19273454 -0.20374078 0.52497333
000050 d3 83 33 3f 25 bc 27 3e fb b1 0b 3f 84 c5 46 be
       0.7012302 0.16380365 0.5456845 -0.19411284
000060 cb 32 22 3f e2 e1 15 3f 13 8a 80 3e 2a 47 dc bd
       0.63358754 0.58547795 0.25105342 -0.10755761
000070 2e ba 55 3e 4e 10 b7 3e d0 60 7a 3c d6 cc 9a be
       0.20871803 0.35754627 0.015281871 -0.30234402
000080 7f 0a aa bc ca 06 17 bd 66 30 0a be fc f0 16 3c
       -0.020756958 -0.03687171 -0.13495025 0.009212729
000090 ac 9f d2 3e 7f 00 3c bf 04 67 38 be 2c c0 a6 bd
       0.41137445 -0.73438257 -0.18008047 -0.081421226
0000a0 c7 bc d8 3e 62 8c f3 bd 15 f6 ad bd 5f 57 f0 3d
       0.42331526 -0.1189201 -0.08494202 0.11735415
0000b0 d4 2a 8b 3e f6 96 27 3f 5d d3 0c 3f f9 c6 67 3f
       0.27181113 0.65464723 0.55010015 0.90537983
0000c0 a0 8d 3d bf e5 33 33 be 43 f7 0a 3e 9c cd e9 3e
       -0.7404423 -0.17500265 0.13570885 0.4566468
0000d0 ad 17 e9 3e 6b b5 96 3d 65 b4 83 3e fb 47 f9 be
       0.45525876 0.073588215 0.25723568 -0.4868773
0000e0 29 51 b2 3e 75 42 d7 be 7f f3 6d 3d a8 ae 17 be
       0.34827545 -0.4204289 0.058093544 -0.1481272
0000f0 7f de d8 3e be 3b a9 bd ec a4 2b 3e 9d 5d 43 be
       0.4235725 -0.08263348 0.16762131 -0.1907868
000100 50 e6 99 3e a6 96 f1 be 4d 0e fe 3d 62 57 25 3f
       0.30058527 -0.47185248 0.124050714 0.6458646
000110 27 01 07 3f 00 8f 04 3f 83 9f 00 3f be a5 5d 3e
       0.52736133 0.517807 0.50243396 0.21645257
000120 f9 98 b8 be 76 36 21 3f be cb ad be c1 fa ff 3e
       -0.3605421 0.62973726 -0.33944505 0.49995998
000130 b3 75 1e be 91 90 b5 be 27 58 1d be 31 a9 11 3f
       -0.15474586 -0.35461858 -0.15365659 0.5689879
000140 93 1a b1 bd 6c f6 af be 76 af 90 3f 1d 18 1f 3f
       -0.08647647 -0.34367692 1.1303546 0.6214617
000150 35 e3 80 be 55 1a f0 3e 78 8e f3 3d 10 d7 7c 3e
       -0.25173345 0.4689509 0.11892408 0.24691415
000160 24 88 1e 3e f1 14 37 3f 18 9b 06 3f cf 36 ee 3e
       0.15481621 0.7151633 0.52580404 0.4652619
000170 72 6b 03 bf 19 30 80 bd 19 5f 88 bd 60 31 5e 3e
       -0.51335824 -0.06259174 -0.066587634 0.21698523
000180 9b 98 83 be 12 fc 1c be 73 cf 86 3e f7 14 8f 3e
       -0.25702366 -0.15330532 0.26330146 0.27945682
000190 b6 86 5b 3f 79 d7 03 bc 21 bb e7 be 0e b6 29 3f
       0.8575243 -0.008046978 -0.45259956 0.6629342
0001a0 c7 6c cb bd b5 be 6b be 56 58 78 bd 5f b4 21 3e
       -0.09932857 -0.23021968 -0.06063112 0.15791462
0001b0 53 80 88 3d 55 f1 90 be 51 b2 73 3f d4 43 10 3e
       0.06665101 -0.28309122 0.95193964 0.14088374
0001c0 0e 64 03 bf 3c 93 dd 3e 3d 66 03 bf 6e 6a 03 bf
       -0.51324546 0.43276393 -0.5132788 -0.51334274
0001d0 32 98 02 bf f3 86 ab bd 16 f5 38 be ba 54 42 3f
       -0.5101348 -0.08375349 -0.18062243 0.7591053
0001e0 7d 6d a1 3e f1 f7 9b be 96 b3 78 be 2b c6 55 be
       0.31528845 -0.30462602 -0.24287257 -0.20876376
0001f0 d4 94 46 bd 98 81 8a be fe 99 1f 3f a3 be 4e 3f
       -0.048481777 -0.27051997 0.6234435 0.8075964
000200 46 16 0a 3f e8 2e ba bd 62 0d 9b bd 84 22 46 bd
       0.53940237 -0.09090978 -0.07570912 -0.04837276
000210 74 c7 81 3e 39 b8 b1 3e 9a 1e 95 3e 65 f9 f2 bd
       0.25347483 0.34710863 0.2912491 -0.118639745
000220 71 8b cb 3c fe 54 02 3f b5 c8 37 3f 34 56 fd 3e
       0.024846764 0.5091094 0.7179063 0.4947983
000230 f4 35 15 3e b7 6b 9c be 0f cf 78 be 78 37 a3 3e
       0.14571363 -0.3055093 -0.24297737 0.31878257
000240 0c c8 6c 3e a0 74 e5 be 62 f5 e0 3e 82 6a 04 bf
       0.23123187 -0.4481554 0.43937212 -0.5172502
000250 14 11 4e 3f 16 b5 a8 3e d1 8e 62 be df 09 ab 3e
       0.8049481 0.32950658 -0.22124793 0.3340597
000260 f2 f8 93 3e 09 44 d1 3e 45 87 67 be ce 7d e5 be
       0.28900868 0.4087222 -0.22610195 -0.44822544
000270 9e dd a7 3e c4 a6 e4 be bd 51 12 be 0e 21 e3 be
       0.32786268 -0.44658482 -0.14288993 -0.44361156
000280 89 eb dc be c9 16 ae 3d 9f 1f 8f 3e a5 87 c6 3d
       -0.4314845 0.0850044 0.27953812 0.09693841
000290 c4 a1 72 be fa 37 a7 3d c2 b2 58 bd 48 e6 b7 be
       -0.23694521 0.081649736 -0.05290485 -0.35917878
0002a0 01 5a e7 be 07 92 e8 3e 58 1c e6 bd cf d3 0b bd
       -0.45185855 0.4542391 -0.11235875 -0.034137543
0002b0 8e 9b e5 be 35 18 42 be 80 d3 21 3d d9 34 3c be
       -0.4484524 -0.18954547 0.039508343 -0.18379535
0002c0 2a 29 69 3e 3c fe 86 3e dd c7 bb 3e e3 46 35 be
       0.22769609 0.2636584 0.3667592 -0.17702822
0002d0 10 04 4e be 9d f3 e6 bd 0d 37 db 3e 37 f0 18 3f
       -0.20118737 -0.11276934 0.42815438 0.5974154
0002e0 10 d7 a9 3e 30 1e b4 3e 8d 3f 87 be 42 1d 78 3e
       0.33171892 0.3517928 -0.26415673 0.24229911
0002f0 51 b1 aa 3e ae d6 79 3e e6 35 2d bc fd 02 7c 3e
       0.33338407 0.243983 -0.010571932 0.24610515
000300 7d a7 1a bf 19 38 39 3f 0e d4 a8 3e ce cf 86 be
       -0.60411817 0.72351223 0.32974285 -0.26330417
000310 c7 f8 94 3e 6b 16 1d 3e 25 ae 62 3e 7d 46 8a be
       0.29096052 0.15340583 0.22136743 -0.27006903
000320 ac a1 d0 bc 3e 64 b9 3e 00 88 08 bf 50 ed 86 be
       -0.025467716 0.3620929 -0.5333252 -0.2635293
000330 a8 89 08 bf ae 88 08 bf 0e 87 a8 be 2f ec 4d 3e
       -0.53335047 -0.53333557 -0.3291554 0.20109628
000340 d2 a0 2d 3e 16 c7 18 3e f8 25 ed 3c 7d 5f 31 3d
       0.1695588 0.14919695 0.028948769 0.043303955
000350 61 1c 9c be d5 21 ae bd bd d3 95 3e 46 35 44 be
       -0.304904 -0.08502547 0.29263106 -0.19160947
000360 e1 e5 c3 3d 4d 87 08 bf b0 af 8c bd c3 97 00 3d
       0.0956533 -0.5333145 -0.06869447 0.03139473
000370 e4 e0 b2 be f4 e8 e6 3d 2b 38 c7 3e ee e9 6d 3e
       -0.34937203 0.11274901 0.3891004 0.23233768
000380 ac bd 35 3d 85 d0 32 be 21 ee 11 be ef 4b f3 be
       0.04437034 -0.17462356 -0.14250995 -0.4751887
000390 17 95 48 3f fb d7 9a 3e ea 63 14 3e 2d 9e 2b be
       0.78352493 0.30242905 0.14491239 -0.16759558
0003a0 c2 d6 1e be 75 58 79 3e eb 9d 09 3f c5 9e bc 3e
       -0.15511611 0.2435015 0.5375659 0.36839882
0003b0 03 54 55 3c de f5 51 3b f9 37 48 3f db 8b d8 3e
       0.013020518 0.0032037417 0.7821041 0.422942
0003c0 b7 95 6a be da 7e 8f 3e 56 07 b4 3e 32 a6 b4 3e
       -0.22908674 0.28026468 0.35161847 0.35283047
0003d0 11 7a 6e be 42 b0 98 3e 0a c1 4d 3e 40 99 ec be
       -0.23288752 0.29821974 0.2009317 -0.4621067
0003e0 5e 92 d1 bd 07 9a ec be 9b 94 ec be 7b 97 8f be
       -0.102329955 -0.46211264 -0.46207127 -0.28045258
0003f0 f0 1e c6 3e c1 41 92 be 46 c0 5e 3e 22 5e b8 bd
       0.38695478 -0.2856579 0.21753034 -0.090023294

l1.bias f4 [8]
000000 ea 50 66 3f 04 78 63 3f cb 6a 03 3f 6c 6f e5 3e
       0.89967215 0.88855004 0.5133483 0.4481157
000010 eb 87 08 3f 94 99 ec 3e 2f 28 3f 3f 02 e5 c7 3e
       0.53332394 0.4621092 0.7467069 0.39041907

l2.weight f4 [8, 8]
000000 d7 c2 a8 3f 4f 00 1e be f9 f3 29 be c6 8c 36 bf
       1.318446 -0.15429805 -0.16596974 -0.71308553
000010 91 88 8c bd 9b 35 14 bf 27 31 8b 3f b5 d1 69 bf
       -0.068619855 -0.57894295 1.0874375 -0.9133561
000020 aa 55 8e 3f eb c5 d4 bd 16 f5 a5 3d 6e b4 2e 3e
       1.1119893 -0.10389312 0.08103387 0.17061016
000030 b7 99 23 3f 8c 4b 25 3f cc 6f 04 bf 39 c8 e3 be
       0.63906425 0.645684 -0.5173309 -0.44488695
000040 6b c2 20 3f 40 98 e8 3e 04 0e 9c bf 12 a6 1e bf
       0.6279666 0.45428658 -1.2191777 -0.61972153
000050 05 46 38 bf 7a 61 27 bf e9 fa 83 3f b5 c9 2e bf
       -0.7198184 -0.6538311 1.0310947 -0.6827653
000060 d5 e0 a1 3e 93 67 ab 3f b4 65 7b 3f 99 ef a5 bd
       0.31616846 1.3390983 0.9820206 -0.0810234
000070 68 cf a7 3d 58 fa 9e bc 69 9f 50 bf 0f c0 45 3f
       0.081938565 -0.019406483 -0.8149324 0.77246183
000080 f8 83 3a 3f 10 b8 60 3f 19 24 1d 3e 95 80 6c bf
       0.7285762 0.8778086 0.15345801 -0.923837
000090 ad 0f f1 be 09 8d 67 be f7 1d 93 3f 5a fa 66 bf
       -0.47082272 -0.22612394 1.149352 -0.90225756
0000a0 f5 c1 81 3f bb 49 a1 3f 80 22 79 bf d4 f1 23 3f
       1.0137316 1.2600626 -0.9731827 0.64040875
0000b0 da 2c 1a 3f ce a6 82 bf 73 2f 22 bf 32 f0 09 3f
       0.6022469 -1.0207155 -0.6335365 0.53882134
0000c0 5c 8c 65 3d ec 15 eb be 18 ac be 3d ac 29 90 3f
       0.05604206 -0.45915163 0.09310168 1.1262717
0000d0 63 0c 9d 3f bb db ae 3f b8 6a 90 3f 39 7a a5 3f
       1.2269405 1.3660806 1.1282568 1.2927924
0000e0 2d d0 87 3f e8 32 5c 3e 59 48 b9 3f 6c 6f 1c be
       1.0610405 0.21503794 1.4475204 -0.15276879
0000f0 1e 32 07 3f 38 35 90 3f 4f ad 65 bf 5d 86 1e bf
       0.5281085 1.1266241 -0.8971757 -0.6192377

l2.bias f4 [8]
000000 06 48 0a 3f 12 ae 34 be 44 83 00 3f d8 4b da 3e
       0.5401615 -0.17644528 0.50200295 0.4263599
000010 fc 09 02 3f ce 75 aa 3e 8e 1a af 3e 64 7e 6d 3e
       0.50796485 0.33293003 0.34199947 0.23192745

l3.weight f4 [7, 8]
000000 23 d4 49 bf ae a7 47 bf f9 f8 44 bf f4 d1 01 3f
       -0.7883932 -0.77990234 -0.769424 0.5071099
000010 cc 4a 60 bf 0d ce 70 3f 7d 75 01 3e 00 20 5b bf
       -0.8761413 0.9406441 0.12642474 -0.85595703
000020 22 e1 54 bf 6b 07 af be 12 67 36 bf a7 5b 49 bf
       -0.83156025 -0.34185347 -0.7125102 -0.78655475
000030 02 50 94 bf 3a 57 6c bf 9e 92 84 3f 62 c0 26 bf
       -1.1586916 -0.923206 1.0357244 -0.651373
000040 79 7a 22 3f da 68 68 bf f6 0a e5 3e 0e d8 a8 bf
       0.6346813 -0.9078499 0.44734925 -1.3190935
000050 84 c4 07 3f 9f 5d 81 bf d0 f3 4c 3e 1c 88 5d bf
       0.53034234 -1.0106696 0.20014882 -0.8653581
000060 1c a6 83 bf 6f b2 62 3f bc 55 14 bf f2 20 ba 3d
       -1.0285068 0.8855352 -0.5794332 0.09088315
000070 8d f7 bd bf 3e d9 70 3d f9 a4 97 bd c2 98 16 3f
       -1.4841172 0.05880093 -0.07404513 0.5882684
000080 75 9a 2b 3f 54 60 e1 3e 07 c5 81 bf 26 56 7a 3d
       0.6703256 0.44018805 -1.0138253 0.061117314
000090 37 2e 08 bc f8 a8 8d bf 2b 0a e6 be ff 9a fc 3e
       -0.0083118 -1.106719 -0.44929633 0.49337003
0000a0 9b dc 24 3f 79 36 92 3e d1 4d 1c 3f 99 24 b6 bd
       0.6439912 0.28557184 0.6105624 -0.08893699
0000b0 09 49 06 3e c8 a4 59 3f aa 44 ae bf 3d 71 c2 be
       0.13113798 0.8501706 -1.3614705 -0.3797702
0000c0 4c f6 86 bf f9 a1 85 bf 96 56 64 bf 28 08 7e 3f
       -1.0543914 -1.0440055 -0.8919462 0.99231195
0000d0 9d a7 df 3e ea 37 b6 3d 42 42 c5 bf 68 fb d9 3e
       0.43682566 0.088973835 -1.5410845 0.4257462

l3.bias f4 [7]
000000 1b 80 68 bd 1a 04 da 3e ea 1b 41 3e ab 02 03 bf
       -0.056762796 0.42581254 0.18858305 -0.51175946
000010 9a 37 08 3e 2d 6c c5 be 51 55 1a bd
       0.1330246 -0.38559094 -0.03767902
